_________________________________________________________________
Layer (type)                 Output Shape              Param #   
=================================================================
conv1d_1 (Conv1D)            (None, 975, 320)          33600     
_________________________________________________________________
max_pooling1d_1 (MaxPooling1 (None, 75, 320)           0         
_________________________________________________________________
dropout_1 (Dropout)          (None, 75, 320)           0         
_________________________________________________________________
bidirectional_1 (Bidirection (None, 75, 640)           1640960   
_________________________________________________________________
dropout_2 (Dropout)          (None, 75, 640)           0         
_________________________________________________________________
flatten_1 (Flatten)          (None, 48000)             0         
_________________________________________________________________
dense_1 (Dense)              (None, 925)               44400925  
_________________________________________________________________
activation_1 (Activation)    (None, 925)               0         
_________________________________________________________________
dense_2 (Dense)              (None, 1)                 926       
_________________________________________________________________
activation_2 (Activation)    (None, 1)                 0         
=================================================================
Total params: 46,076,411
Trainable params: 46,076,411
Non-trainable params: 0
_________________________________________________________________
Train on 162882 samples, validate on 7077 samples
Epoch 1/60
   100/162882 [..............................] - ETA: 449s - loss: 0.6881 - acc: 0.5600
…
