_________________________________________________________________
Layer (type)                 Output Shape              Param #   
=================================================================
conv1d_1 (Conv1D)            (None, 143, 1000)         33000     
_________________________________________________________________
conv1d_2 (Conv1D)            (None, 136, 100)          800100    
_________________________________________________________________
max_pooling1d_1 (MaxPooling1 (None, 10, 100)           0         
_________________________________________________________________
dropout_1 (Dropout)          (None, 10, 100)           0         
_________________________________________________________________
flatten_1 (Flatten)          (None, 1000)              0         
_________________________________________________________________
dense_1 (Dense)              (None, 50)                50050     
_________________________________________________________________
activation_1 (Activation)    (None, 50)                0         
_________________________________________________________________
dense_2 (Dense)              (None, 1)                 51        
=================================================================
Total params: 883,201
Trainable params: 883,201
Non-trainable params: 0
_________________________________________________________________
(9628, 150, 4)
(9628, 1)
Train on 9628 samples, validate on 7001 samples
Epoch 1/100

 100/9628 [..............................] - ETA: 9s - loss: 2.7063 - pearson_correlation: 0.0180
 200/9628 [..............................] - ETA: 10s - loss: 1.4161 - pearson_correlation: 0.0365
…
